Loading Train Dataset
Loading Test Dataset
Creating Dataloader
ElectraModelCrossEntropy(
  (embed_layer): Embedding(26729, 100, padding_idx=26728)
  (attention): EncoderProjectDoubleIntermediate(
    (project): Linear(in_features=100, out_features=200, bias=True)
    (WQ): Linear(in_features=200, out_features=200, bias=True)
    (WK): Linear(in_features=200, out_features=200, bias=True)
    (WV): Linear(in_features=200, out_features=200, bias=True)
    (dropout): Dropout(p=0.1, inplace=False)
    (outputdense): Linear(in_features=200, out_features=200, bias=True)
    (norm): LayerNorm((200,), eps=1e-12, elementwise_affine=True)
    (dropout2): Dropout(p=0.1, inplace=False)
    (intermediate): Linear(in_features=200, out_features=400, bias=True)
    (inverseintermediate): Linear(in_features=400, out_features=200, bias=True)
    (norm2): LayerNorm((200,), eps=1e-12, elementwise_affine=True)
    (dropout3): Dropout(p=0.1, inplace=False)
  )
  (fc1): Linear(in_features=200, out_features=200, bias=True)
  (dropout): Dropout(p=0.1, inplace=False)
  (fc2): Linear(in_features=200, out_features=2, bias=True)
  (softmax): Softmax(dim=None)
)
Creating Electra Trainer
Using 2 GPUS for ELECTRA
Total Parameters: 3055902
Training Start
epoch: 0, iter: 0, avg loss: 0.6919384598731995,accuracy: 25/48=52.08%,pos accuracy: 6/21=28.57%, loss: 0.6919384598731995
epoch: 0, iter: 100, avg loss: 0.655877689913948,accuracy: 2917/4848=60.17%,pos accuracy: 1399/2512=55.69%, loss: 0.6134055256843567
…
